nets/old/3tictactoe_net2_64_0_0_1e-07_6000000.pth (torch, 8248 bytes, 4 tensors)

weight f4 [64, 9]
0	0xbe85f689	-0.26164654
1	0x3c9f3676	0.019435149
2	0x3e81fd15	0.253884
3	0xbf5878c9	-0.84559304
4	0xbea7d5cb	-0.327803
5	0x3e6718f5	0.22568114
6	0x3fbe852b	1.488439
7	0xbefa64a2	-0.48904902
8	0xbe7efdf8	-0.24901569
9	0x3e830023	0.25586042
10	0x3f49a5d6	0.7876867
11	0x3dce9168	0.10086328
12	0x3b93515a	0.004495782
13	0x3e863733	0.2621399
14	0xc006c6dc	-2.1058874
15	0x3e9fd15e	0.31214422
16	0x3ee3a121	0.4445887
17	0xbc30112e	-0.010746283
18	0xbdb9e202	-0.09076311
19	0xbed59f9b	-0.41723332
20	0xbf0021d0	-0.50051594
21	0xbe685436	-0.22688374
22	0xbe74c814	-0.23904449
23	0xbf18707c	-0.5954664
24	0x3fb21172	1.3911574
25	0xbeefd38c	-0.46841085
26	0x3e411192	0.18854359
27	0xbe39b437	-0.18135153
28	0xbe936a43	-0.2879201
29	0xbeb24e25	-0.34825245
30	0x3f3c5253	0.73563117
31	0xbf802f52	-1.0014441
32	0x3f3fd4fb	0.7493436
33	0x3eb60cfb	0.35556778
34	0x3de7cc77	0.113182954
35	0xbe5fb930	-0.21847987
36	0xbde71c87	-0.11284738
37	0x3e4ac432	0.19801405
38	0x3f1ebeb4	0.6200974
39	0xbf136c1a	-0.57586825
40	0xbedc6dce	-0.43052524
41	0xbea94edd	-0.3306798
42	0xbe9494ed	-0.2901987
43	0x3f32d666	0.69858396
44	0xbf4f5206	-0.8098453
45	0x3edb8f70	0.42882872
46	0x3f57af1c	0.8425157
47	0x3ebf43fb	0.37356552
48	0xbdb2aad6	-0.087239906
49	0x3dd881f0	0.105716586
50	0xbe8a745b	-0.27041897
51	0xbffda9cb	-1.9817442
52	0x3e51fc57	0.20506416
53	0xbeaf005a	-0.34179956
54	0x3da31e46	0.079647586
55	0xbe8360ba	-0.25659734
56	0x3fdd88f0	1.7307415
57	0x3bbf204c	0.0058327075
58	0xbe92cde3	-0.28672704
59	0xbeb2e8f6	-0.3494336
60	0x3e3dd834	0.18539506
61	0x3dafaf54	0.08578363
62	0x3df13ce2	0.117791906
63	0x3cac1166	0.02100439
64	0x3f641d1a	0.89106905
65	0x3ec0b879	0.3764074
66	0xbe1ac3c5	-0.15113743
67	0xbfec958b	-1.8483137
68	0x3ec5259b	0.38505253
69	0xbc582368	-0.013192035
70	0xbc59e0ed	-0.013298255
71	0xbddf3621	-0.10898996
72	0x3dc39e74	0.09551707
73	0xbf39bf48	-0.725575
74	0x3db2b3e5	0.087257184
75	0x3cdf5636	0.027262788
76	0xbfba8ff2	-1.4575179
77	0xbddf5101	-0.10904122
78	0x3f3d9baa	0.7406565
79	0xbd3ed6c3	-0.04659153
80	0x3f8f0507	1.1173409
81	0xbf19f5c6	-0.60140646
82	0x3eb89054	0.36047614
83	0xbf89175d	-1.0710255
84	0x3f8c365d	1.095409
85	0x3f0977d9	0.536985
86	0x3d9f8fb0	0.07791078
87	0xbea528e9	-0.32257774
88	0x3d9c6d37	0.076380186
89	0xbed9a914	-0.4251181
90	0xbfb5ffad	-1.4218651
91	0x3eebe145	0.46070305
92	0xbbb3796e	-0.005477122
93	0x3ec6a38b	0.38796648
94	0x3fa60e3b	1.2973093
95	0x3f08363e	0.53207767
96	0x3d6884a2	0.056767114
97	0x3f37c360	0.71782494
98	0xbf919366	-1.1373107
99	0xbcfca085	-0.03083826
100	0xbd95f012	-0.073211804
101	0x3f8cf8e4	1.1013455
102	0x3e3ec179	0.18628491
103	0x3eb79cef	0.35861918
104	0x3ddbc927	0.10731726
105	0xbeb73272	-0.35780674
106	0xbe72d1c9	-0.23712839
107	0xbc506fdd	-0.012721983
108	0x3e3b1860	0.18271017
109	0xbe86e455	-0.2634608
110	0x3d92d327	0.0716918
111	0xbea4f162	-0.3221541
112	0xbeff9598	-0.49918818
113	0xbf05960c	-0.5218208
114	0xbdc4cddb	-0.09609576
115	0xbf0cf46d	-0.55060464
116	0x3fe52443	1.7901691
117	0xbf11fbfe	-0.57025135
118	0x3f94abf4	1.1614976
119	0x3e638115	0.2221721
120	0xbfc938cf	-1.5720462
121	0xbeb8fe3c	-0.36131465
122	0x3dd51793	0.10404887
123	0xbcfe9fc7	-0.031082047
124	0x3e4f329f	0.20234154
125	0x3f14b00b	0.5808112
126	0xbf402a07	-0.7506413
127	0x3f2df6f8	0.6795497
128	0xbfb69255	-1.4263407
129	0x3d364a1f	0.04450428
130	0x3f54060f	0.82821745
131	0x3f13ab4f	0.5768327
132	0xbe83fb7c	-0.25777805
133	0x3f98cb66	1.1937072
134	0xbf334241	-0.7002297
135	0xbe63589d	-0.22201772
136	0xbe8afb31	-0.2714477
137	0x3f98455f	1.189617
138	0xbe8e1ff6	-0.2775876
139	0xbe08a797	-0.1334518
140	0xbf05e196	-0.5229734
141	0xbe0ad007	-0.13555919
142	0x3e2146d7	0.1574968
143	0xbd24308a	-0.040085353
144	0x3ec56457	0.38553116
145	0x3f42c468	0.7608094
146	0x3f536c3b	0.8258702
147	0xbf7a8205	-0.97854644
148	0xbf53046e	-0.82428634
149	0x3ec0e632	0.37675625
150	0xbd8dd30c	-0.069250196
151	0xbf6b1b40	-0.91838455
152	0x3f501e52	0.81296265
153	0x3e059278	0.13044155
154	0xbf38afd9	-0.7214332
155	0xbf1924ab	-0.59821576
156	0xbe5186f9	-0.20461644
157	0xbeab9fcb	-0.3352035
158	0xbf0af2ad	-0.54276544
159	0x3f298cf2	0.6623069
160	0x3f8cf572	1.1012404
161	0x3ecfc66e	0.40581077
162	0x3efc8305	0.4931871
163	0x3e2c0cbf	0.16801737
164	0x3e8248b5	0.25446096
165	0x3df81690	0.121136785
166	0xc004944d	-2.0715516
167	0x3d309f22	0.04312051
168	0xbdeb2307	-0.1148129
169	0x3e16692b	0.14688556
170	0xbdce4f57	-0.100737266
171	0xbe8f66db	-0.2800816
172	0x3ffd48fc	1.9787898
173	0xbe0b2ba1	-0.13590862
174	0xbe6d7adc	-0.23191398
175	0xbe6e32d5	-0.23261578
176	0x3e624584	0.2209683
177	0xbf17b151	-0.5925494
178	0xbf0894cb	-0.5335204
179	0x3e305610	0.1722033
180	0x3e10f2ac	0.14155072
181	0x3e0cecee	0.13762257
182	0x3e743e5a	0.2385191
183	0x3e4218d4	0.18954784
184	0x3e870fe7	0.2637932
185	0xbd72fdca	-0.059324063
186	0x3f7e4539	0.99324375
187	0x3d3bcd41	0.045850042
188	0xbff5ad4d	-1.9193512
189	0x3f4794f4	0.7796166
190	0x3f0c8a91	0.54898936
191	0x3f0a1c79	0.53949696
192	0x3d82cf50	0.06387198
193	0x3ea06f1e	0.31334776
194	0x3e996f61	0.29967788
195	0xc00e4e12	-2.223515
196	0x3ebfbe18	0.37449718
197	0x3f00b874	0.50281453
198	0x40061e55	2.0956013
199	0xbed7fb80	-0.42184067
200	0xbecd0f1e	-0.40050596
201	0xbc9d6348	-0.01921238
202	0xbec17aa4	-0.3778888
203	0xbdfd58ce	-0.12370454
204	0xbc43e269	-0.011955836
205	0xbec5f071	-0.38660005
206	0xbea6ad2f	-0.32554004
207	0xbe99e9c8	-0.30061173
208	0x3d5c469b	0.053778272
209	0xbf9e0ed3	-1.2348274
210	0x3e0bdf5d	0.13659425
211	0xbcd9f159	-0.026604341
212	0x3e1be13e	0.15222642
213	0xbd209d96	-0.039212786
214	0x3da6911b	0.081331454
215	0x3fc5e7ad	1.5461327
216	0xbe5581e2	-0.20850328
217	0x3fbc6438	1.4718084
218	0xbdf0e2d5	-0.11762015
219	0xbe11a8b0	-0.14224505
220	0x3e2f1547	0.1709796
221	0xbf12d8ec	-0.57362247
222	0x3ee8eea1	0.4549456
223	0x3b9d41e5	0.004799115
224	0xbe5a7ec3	-0.21337418
225	0xbf0f6401	-0.5601197
226	0xbe9aa320	-0.3020258
227	0xbe93c8d9	-0.28864172
228	0xbee40bc9	-0.4454024
229	0xbc7e2b26	-0.015513217
230	0xbe2cdbb2	-0.16880682
231	0xbde8254e	-0.1133524
232	0xbe319b0e	-0.17344305
233	0x4009098d	2.141208
234	0x3ef63762	0.4808913
235	0x3ea633ad	0.324613
236	0x3f09c18c	0.53810954
237	0x3e9c5750	0.30535364
238	0x3d47ddf5	0.04879566
239	0xbdee540a	-0.11637123
240	0x3f365c36	0.7123445
241	0xbfcc80f7	-1.5976857
242	0x3ea19400	0.31558228
243	0x3fe255b9	1.768241
244	0x3bffb4b7	0.0078035253
245	0xbeaa78fe	-0.33295435
246	0xbe149a4c	-0.14511985
247	0xbd4598fb	-0.048241597
248	0xbe47bfa1	-0.19506694
249	0x3d6c66ca	0.057715215
250	0xbe500582	-0.20314601
251	0xbe992c09	-0.2991641
252	0x3f00cafc	0.5030973
253	0xbe450500	-0.19240189
254	0x3d5e73fa	0.054309823
255	0x3e8249d1	0.25446942

bias f4 [64]
0	0x3ea7d3e2	0.3277884
1	0x3e921881	0.2853432
2	0x3e74c5e9	0.23903622
3	0x3e529e43	0.20568185
4	0xbd083a6b	-0.033258837
5	0xbdf6102e	-0.12014805
6	0x3e8a0531	0.26957086
7	0xbec5246f	-0.3850436
8	0xbcabe200	-0.020981789
9	0x3e20c4ef	0.15700124
10	0x3d0ea30e	0.03482347
11	0x3ed17ae4	0.4091407
12	0x3ebaecf6	0.36508912
13	0x3e02e3a7	0.12782155
14	0x3e45b6e1	0.19308044
15	0x3f15f25c	0.58572936
16	0xbab78d75	-0.001400395
17	0xbde21428	-0.11039001
18	0xbe7647f8	-0.24050891
19	0x3e31b463	0.17353968
20	0x3ee944ad	0.45560208
21	0xbea06f73	-0.3133503
22	0x3f17575e	0.59117687
23	0x3eebe364	0.46071923
24	0x3e8d6aaa	0.2762044
25	0x3f24700c	0.6423347
26	0x3eb7606d	0.35815755
27	0x3ee687ae	0.4502539
28	0xbda9981e	-0.08280967
29	0x3e647249	0.22309221
30	0xbeaf66ec	-0.3425821
31	0x3eef570b	0.46746096
32	0x3edeecab	0.43539938
33	0x3e575aeb	0.21030776
34	0x3e6f4505	0.23366173
35	0x3edd106b	0.43176588
36	0x3ecf54f1	0.40494493
37	0x3f09d6e6	0.53843534
38	0x3ed31e10	0.41233873
39	0x3eadee17	0.3397071
40	0x3e7ed166	0.24884567
41	0x3ebb86f7	0.36626408
42	0x3e10d875	0.14145072
43	0x3ea77843	0.3270894
44	0x3e049696	0.12948069
45	0x3e214e5d	0.1575255
46	0x3f1d7afd	0.6151579
47	0x3eef5212	0.46742302
48	0x3e1abb24	0.15110451
49	0x3e9795ac	0.29606378
50	0x3f478930	0.77943707
51	0x3f2263ba	0.6343342
52	0x3e0a0581	0.13478662
53	0x3e834005	0.2563478
54	0x3bc52ab7	0.006017055
55	0x3eb22363	0.34792623
56	0x3f161b23	0.5863516
57	0x3e11091c	0.14163631
58	0x3f019a1a	0.50625765
59	0x3e81ae05	0.2532808
60	0xbd55bee6	-0.052184008
61	0x3e7ac451	0.24488951
62	0x3f1e977f	0.61949915
63	0x3f3670d2	0.712659

weight f4 [9, 64]
0	0x3f0545c2	0.52059567
1	0x3ef95cbf	0.48703572
2	0x3e93c6f1	0.28862718
3	0x3ea4515e	0.32093328
4	0x3f2a054f	0.6641435
5	0x3e6337d3	0.22189264
6	0x3ee88e94	0.45421278
7	0x3f1807a0	0.59386635
8	0xbee7bf2c	-0.4526304
9	0xbe825b4f	-0.25460288
10	0xbf49c96c	-0.7882297
11	0x3e129111	0.14313151
12	0x3f11539c	0.567682
13	0x3ed87811	0.42279103
14	0xbe4b4ec3	-0.19854264
15	0x3f06997e	0.5257796
16	0x3e87821b	0.2646645
17	0x3f1b1723	0.6058218
18	0x3f36090b	0.7110755
19	0x3f054962	0.520651
20	0x3f0b4da7	0.54415363
21	0x3f32ea18	0.6988845
22	0xbfdadec1	-1.7099229
23	0x3edbcdbe	0.42930406
24	0xbd223503	-0.039601337
25	0x3f00b847	0.50281185
26	0xbe23c0a5	-0.15991457
27	0xbf8e8291	-1.1133596
28	0x3e61c65c	0.22048324
29	0x3efed76e	0.49773735
30	0x3d98e9b5	0.07466451
31	0x3ee0b8ea	0.43891078
32	0x3eb22d05	0.34799972
33	0x3f07d110	0.5305338
34	0xbe750776	-0.23928627
35	0x3eab8b75	0.33504835
36	0x3e88c68d	0.26713982
37	0x3ee46373	0.44607124
38	0x3ebe1887	0.37128088
39	0xbe4167fd	-0.18887325
40	0x3eed0474	0.4629246
41	0x3e04a024	0.12951714
42	0x3e682777	0.22671305
43	0x3e78f29f	0.24311303
44	0xbfee0a8e	-1.8596971
45	0x3e935661	0.2877684
46	0x3f07f006	0.5310062
47	0x3e602792	0.21890095
48	0xbd8c2dd9	-0.06844682
49	0xbfacb206	-1.3491828
50	0x3edf23c1	0.43581966
51	0xbdb1231b	-0.08649274
52	0xbdd41a5d	-0.10356591
53	0x3eaf3bd4	0.34225333
54	0xbdcf1675	-0.10111705
55	0x3ebdaae3	0.3704444
56	0xbf1bd069	-0.60864884
57	0x3da7621d	0.081730105
58	0x3e6bb9f4	0.23020154
59	0x3ee6803f	0.4501972
60	0x3f533615	0.825044
61	0x3eb760d9	0.35816076
62	0x3eae8bd3	0.34091052
63	0x3dd606a7	0.104504876
64	0x3f2fee38	0.6872287
65	0x3f792e2a	0.97336066
66	0x3eaa0b2d	0.3321165
67	0x3ea601de	0.324233
68	0x3f109c28	0.56488276
69	0x3edeae95	0.4349257
70	0x3e8431a8	0.25819135
71	0x3f1b8eba	0.6076466
72	0x3f1692a8	0.5881753
73	0x3f05214a	0.5200392
74	0x3f402268	0.750525
75	0x3e4ff64d	0.203088
76	0x3f05d828	0.52282953
77	0xbf9b5227	-1.2134446
78	0x3f9fe6fa	1.2492363
79	0x3ef2c1ea	0.4741357
80	0x3ed64a98	0.41853786
81	0xbf29a880	-0.66272736
82	0x3f30e974	0.6910622
83	0xbfa0ca62	-1.2561762
84	0x3df45af8	0.119314134
85	0x3f14f97a	0.5819317
86	0x3d33f406	0.04393389
87	0x3dc065a7	0.09394389
88	0xbf10dfcc	-0.56591487
89	0xbe58b3cc	-0.21162337
90	0x3f341d7a	0.7035748
91	0x3df1da19	0.11809177
92	0x3ca4e30a	0.020127792
93	0xc00a32c6	-2.159349
94	0x3f585895	0.84510165
95	0x3e65cb6e	0.22440884
96	0xbe8391e7	-0.25697252
97	0x3d661751	0.05617458
98	0x3d9bb41f	0.07602715
99	0x3f01b81c	0.50671554
100	0x3ee68fa3	0.4503146
101	0x3ecb475f	0.3970289
102	0x3e993413	0.29922542
103	0x3e1c645b	0.15272658
104	0xbe6045f4	-0.21901685
105	0x3f031cd1	0.51215845
106	0x3e0ae4be	0.1356382
107	0xbfb28ece	-1.394983
108	0x3dd224ce	0.10260926
109	0x3f0c70e6	0.5485977
110	0xbe265acf	-0.16245578
111	0xbd1f9f31	-0.038970176
112	0x3e901b40	0.2814579
113	0x3df6df8d	0.12054358
114	0x3f0aa79d	0.5416201
115	0xbe5a638e	-0.2132704
116	0x3e2a743b	0.16645901
117	0x3e36c60c	0.17848986
118	0x3e0bfc5d	0.13670488
119	0x3e0204cb	0.12697141
120	0x3f2ef328	0.68339777
121	0xbf3094dd	-0.6897715
122	0x3ebb7a38	0.36616683
123	0x3d421c9e	0.047390573
124	0x3e0ab808	0.13546765
125	0x3f1245bd	0.5713766
126	0x3e115799	0.14193572
127	0x3e90ef4a	0.28307563
128	0x3f19e358	0.60112524
129	0x3f0b4b12	0.54411423
130	0x3e78240d	0.24232502
131	0x3e37ecc3	0.17961411
132	0x3eb1c075	0.34717146
133	0x3f1670c7	0.58765835
134	0xbf9cb754	-1.2243447
135	0x3e8cd57e	0.27506632
136	0xbd4bec57	-0.049785938
137	0xbe104058	-0.14087045
138	0x3f33f700	0.7029877
139	0xbf7227bc	-0.9459188
140	0x3f15b026	0.58471906
141	0x3ee199a0	0.4406252
142	0xbf19f07d	-0.6013258
143	0xbf7d1462	-0.98859227
144	0x3f4eedab	0.808314
145	0x3e5e5f9f	0.21716164
146	0x3e9febaf	0.312345
147	0x3f30ceec	0.6906574
148	0x3f11faa2	0.5702306
149	0x3ef1af9b	0.4720429
150	0x3e8381b1	0.25684884
151	0xbe93ff90	-0.28905916
152	0x3e70fd12	0.23534039
153	0x3f01f524	0.5076468
154	0xbc89adbd	-0.016806478
155	0x3ea392b1	0.31947854
156	0x3daad814	0.08341995
157	0x3f1020e0	0.56300163
158	0x3e9d9312	0.30776268
159	0xbc91d34b	-0.017800948
160	0x3ed332ca	0.41249686
161	0x3eef92f9	0.4679182
162	0x3e73a884	0.23794752
163	0x3e9e5e14	0.3093115
164	0xbe2d01a5	-0.16895159
165	0x3ec8af93	0.39196452
166	0x3f070a42	0.5275003
167	0xbeb55f0d	-0.3542408
168	0xbe3f4338	-0.18677986
169	0x3ee6b715	0.45061556
170	0x3f0f802a	0.5605494
171	0x3ee477a5	0.44622532
172	0x3f0884cb	0.53327626
173	0xbd9abf1a	-0.07555981
174	0xbea9382d	-0.3305067
175	0x3e7d1e28	0.24718535
176	0x3f214085	0.62989074
177	0x3eaf654f	0.3425698
178	0xbfa12e8f	-1.2592334
179	0xbf070028	-0.52734613
180	0x3da886dc	0.082288474
181	0xbfa2519b	-1.2681154
182	0x3eb2cbaa	0.34921008
183	0x3f09e72e	0.5386838
184	0x3e3e45e1	0.18581344
185	0x3e55016e	0.20801327
186	0x3f0c23f9	0.5474239
187	0x3f535eeb	0.8256671
188	0x3eac883f	0.33697698
189	0x3e98a423	0.29812726
190	0x3d85b47d	0.06528566
191	0x3dc8716c	0.097872585
192	0x3d312894	0.04325159
193	0x3e0e3bbf	0.13889979
194	0x3f74aab2	0.9557296
195	0xbf47168c	-0.7776878
196	0x3ecbcce6	0.39804763
197	0x3d40b949	0.0470517
198	0x3efac3ef	0.4897761
199	0x3dcee924	0.10103062
200	0x3edef529	0.43546417
201	0x3d01fa39	0.03173277
202	0x3f07deaf	0.53074163
203	0x3e607b14	0.2192195
204	0x3e8c0509	0.27347592
205	0xbe299454	-0.16560489
206	0x3eb63638	0.3558824
207	0xbd9f7b40	-0.0778718
208	0xbe8aa9cc	-0.2708267
209	0x3e84a3c5	0.25906196
210	0x3e34d6a4	0.17660004
211	0x3f0b2f36	0.54368913
212	0x3f110c02	0.5665895
213	0x3eefa882	0.4680825
214	0x3f1141b3	0.56740874
215	0x3f4899df	0.7835979
216	0x3e871444	0.2638265
217	0x3edcbd57	0.43113205
218	0x3e8bd11c	0.27307975
219	0x3e368b40	0.17826557
220	0x3f0d022e	0.5508145
221	0x3ef9045a	0.48636132
222	0x3e59655b	0.2123007
223	0x3f059390	0.5217829
224	0x3dfd2a0e	0.12361537
225	0x3ebcc682	0.368702
226	0xbf27a176	-0.65480745
227	0x3e42553c	0.18977827
228	0x3ed80508	0.4219134
229	0x3f0365c5	0.51327163
230	0xbf8b641e	-1.0889928
231	0xbea2c9e5	-0.31794658
232	0x3e270ddc	0.1631388
233	0x3f3de07b	0.74170655
234	0x3e350372	0.17677096
235	0x3eae9f55	0.34105936
236	0x3f56d2ce	0.8391541
237	0x3e80a2ac	0.2512411
238	0x3f28082d	0.65637475
239	0xbec18043	-0.37793168
240	0x3f16e2d4	0.5893986
241	0x3e91a2c9	0.28444508
242	0xbe37e553	-0.17958574
243	0x3ec98640	0.39360237
244	0xbebcd9d7	-0.3688495
245	0x3e8fd82a	0.28094608
246	0x3e0dd3d0	0.13850331
247	0xbfaa5e05	-1.3309942
248	0x3dd62213	0.10455718
249	0xbd00cfb6	-0.03144809
250	0x3ed9e7dd	0.4255971
251	0x3e995502	0.29947668
252	0xc0237c4b	-2.5544612
253	0xbf813a08	-1.0095835
254	0x3edb674c	0.42852247
255	0x3e1bced4	0.15215617

bias f4 [9]
0	0x3de7e2d1	0.11322559
1	0x3b32b171	0.0027266408
2	0xbdc868c1	-0.09785605
3	0x3e27bf12	0.16381481
4	0x3ee5af0a	0.44860107
5	0xbead002a	-0.33789188
6	0x3e817f19	0.2529228
7	0xbddb8c6b	-0.10720142
8	0xbd9eb6a0	-0.07749677
